…
35.4s 26 Requirement already satisfied: MarkupSafe>=2.0 in /opt/conda/lib/python3.10/site-packages (from jinja2->torch->TorchDiffEqPack) (2.1.5)
35.5s 27 Requirement already satisfied: mpmath>=0.19 in /opt/conda/lib/python3.10/site-packages (from sympy->torch->TorchDiffEqPack) (1.3.0)
35.5s 28 Downloading TorchDiffEqPack-1.0.1-py3-none-any.whl (33 kB)
48.1s 29 Installing collected packages: TorchDiffEqPack
48.3s 30 Successfully installed TorchDiffEqPack-1.0.1
49.3s 31 /kaggle/input/amp-c-train/Amp_C_train.txt
49.7s 32 CUDA is not available. Running on CPU.
52.6s 33 Model architecture: NeuralODEModel(
52.6s 34 (input_layer): Linear(in_features=2, out_features=32, bias=True)
52.6s 35 (hidden_layers): ModuleList(
52.6s 36 (0): Linear(in_features=32, out_features=64, bias=True)
52.6s 37 (1): Linear(in_features=64, out_features=128, bias=True)
52.6s 38 (2): Linear(in_features=128, out_features=128, bias=True)
52.6s 39 (3): Linear(in_features=128, out_features=64, bias=True)
52.6s 40 (4): Linear(in_features=64, out_features=32, bias=True)
52.6s 41 (5): Linear(in_features=32, out_features=8, bias=True)
52.6s 42 )
52.6s 43 (residual_connections): ModuleList(
52.6s 44 (0): Linear(in_features=32, out_features=64, bias=True)
52.6s 45 (1): Linear(in_features=64, out_features=128, bias=True)
52.6s 46 (2): Identity()
52.6s 47 (3): Linear(in_features=128, out_features=64, bias=True)
52.6s 48 (4): Linear(in_features=64, out_features=32, bias=True)
52.6s 49 (5): Linear(in_features=32, out_features=8, bias=True)
52.6s 50 )
52.6s 51 (ode_func): ODEFunc(
52.6s 52 (fc1): Linear(in_features=8, out_features=8, bias=True)
52.6s 53 (fc2): Linear(in_features=8, out_features=8, bias=True)
52.6s 54 (relu): ReLU()
52.6s 55 (norm): LayerNorm((8,), eps=1e-05, elementwise_affine=True)
52.6s 56 )
52.6s 57 (output_layer): Linear(in_features=8, out_features=2, bias=True)
52.6s 58 (dropout): Dropout(p=0.5, inplace=False)
52.6s 59 )
52.6s 60 --------------------------------------------------
52.6s 61 Parameter name: input_layer.weight
52.6s 62 Parameter shape: torch.Size([32, 2])
52.6s 63 Parameter count: 64
52.6s 64 ------------------------------
52.6s 65 Parameter name: input_layer.bias
52.6s 66 Parameter shape: torch.Size([32])
…
