…
32.7s 27 Requirement already satisfied: mpmath<1.4,>=1.1.0 in /opt/conda/lib/python3.10/site-packages (from sympy->torch->TorchDiffEqPack) (1.3.0)
33.0s 28 Downloading TorchDiffEqPack-1.0.1-py3-none-any.whl (33 kB)
43.3s 29 Installing collected packages: TorchDiffEqPack
43.5s 30 Successfully installed TorchDiffEqPack-1.0.1
43.9s 31 /kaggle/input/amp-c-train/Amp_C_train.txt
44.5s 32 CUDA is available!
44.5s 33 Device name: Tesla P100-PCIE-16GB
44.5s 34 CUDA capability: (6, 0)
44.5s 35 Driver version: 12.3
44.5s 36 Device count: 1
44.5s 37 Current device: 0
47.3s 38 Model architecture: NeuralODEModel(
47.3s 39 (input_layer): Linear(in_features=2, out_features=64, bias=True)
47.3s 40 (hidden_layers): ModuleList(
47.3s 41 (0): Linear(in_features=64, out_features=512, bias=True)
47.3s 42 (1): Linear(in_features=512, out_features=1024, bias=True)
47.3s 43 (2): Linear(in_features=1024, out_features=2048, bias=True)
47.3s 44 (3): Linear(in_features=2048, out_features=4096, bias=True)
47.3s 45 (4): Linear(in_features=4096, out_features=2048, bias=True)
47.3s 46 (5): Linear(in_features=2048, out_features=1024, bias=True)
47.3s 47 (6): Linear(in_features=1024, out_features=512, bias=True)
47.3s 48 (7): Linear(in_features=512, out_features=64, bias=True)
47.3s 49 )
47.3s 50 (residual_connections): ModuleList(
47.3s 51 (0): Linear(in_features=64, out_features=512, bias=True)
47.3s 52 (1): Linear(in_features=512, out_features=1024, bias=True)
47.3s 53 (2): Linear(in_features=1024, out_features=2048, bias=True)
47.3s 54 (3): Linear(in_features=2048, out_features=4096, bias=True)
47.3s 55 (4): Linear(in_features=4096, out_features=2048, bias=True)
47.3s 56 (5): Linear(in_features=2048, out_features=1024, bias=True)
47.3s 57 (6): Linear(in_features=1024, out_features=512, bias=True)
47.3s 58 (7): Linear(in_features=512, out_features=64, bias=True)
47.3s 59 )
47.3s 60 (ode_func): ODEFunc(
47.3s 61 (fc1): Linear(in_features=64, out_features=64, bias=True)
47.3s 62 (fc2): Linear(in_features=64, out_features=64, bias=True)
47.3s 63 (relu): ReLU()
47.3s 64 (norm): LayerNorm((64,), eps=1e-05, elementwise_affine=True)
47.3s 65 )
47.3s 66 (output_layer): Linear(in_features=64, out_features=2, bias=True)
47.3s 67 (dropout): Dropout(p=0.5, inplace=False)
47.3s 68 )
47.3s 69 --------------------------------------------------
47.3s 70 Parameter name: input_layer.weight
47.3s 71 Parameter shape: torch.Size([64, 2])
47.3s 72 Parameter count: 128
47.3s 73 ------------------------------
47.3s 74 Parameter name: input_layer.bias
47.3s 75 Parameter shape: torch.Size([64])
…
