…
38.5s 26 Requirement already satisfied: MarkupSafe>=2.0 in /opt/conda/lib/python3.10/site-packages (from jinja2->torch->TorchDiffEqPack) (2.1.5)
38.5s 27 Requirement already satisfied: mpmath>=0.19 in /opt/conda/lib/python3.10/site-packages (from sympy->torch->TorchDiffEqPack) (1.3.0)
38.5s 28 Downloading TorchDiffEqPack-1.0.1-py3-none-any.whl (33 kB)
51.3s 29 Installing collected packages: TorchDiffEqPack
51.6s 30 Successfully installed TorchDiffEqPack-1.0.1
52.6s 31 /kaggle/input/amp-c-train/Amp_C_train.txt
53.0s 32 CUDA is not available. Running on CPU.
54.4s 33 CUDA not available, falling back to CPU.
56.0s 34 Model architecture: NeuralODEModel(
56.0s 35 (input_layer): Linear(in_features=2, out_features=64, bias=True)
56.0s 36 (hidden_layers): ModuleList(
56.0s 37 (0): Linear(in_features=64, out_features=128, bias=True)
56.0s 38 (1): Linear(in_features=128, out_features=256, bias=True)
56.0s 39 (2): Linear(in_features=256, out_features=256, bias=True)
56.0s 40 (3): Linear(in_features=256, out_features=128, bias=True)
56.0s 41 (4): Linear(in_features=128, out_features=64, bias=True)
56.0s 42 )
56.0s 43 (residual_connections): ModuleList(
56.0s 44 (0): Linear(in_features=64, out_features=128, bias=True)
56.0s 45 (1): Linear(in_features=128, out_features=256, bias=True)
56.0s 46 (2): Identity()
56.0s 47 (3): Linear(in_features=256, out_features=128, bias=True)
56.0s 48 (4): Linear(in_features=128, out_features=64, bias=True)
56.0s 49 )
56.0s 50 (ode_func): ODEFunc(
56.0s 51 (fc1): Linear(in_features=64, out_features=64, bias=True)
56.0s 52 (fc2): Linear(in_features=64, out_features=64, bias=True)
56.0s 53 (relu): ReLU()
56.0s 54 (norm): LayerNorm((64,), eps=1e-05, elementwise_affine=True)
56.0s 55 )
56.0s 56 (output_layer): Linear(in_features=64, out_features=2, bias=True)
56.0s 57 (dropout): Dropout(p=0.5, inplace=False)
56.0s 58 )
56.0s 59 --------------------------------------------------
56.0s 60 Parameter name: input_layer.weight
56.0s 61 Parameter shape: torch.Size([64, 2])
56.0s 62 Parameter count: 128
56.0s 63 ------------------------------
56.0s 64 Parameter name: input_layer.bias
56.0s 65 Parameter shape: torch.Size([64])
…
