…
29.6s 26 Requirement already satisfied: MarkupSafe>=2.0 in /opt/conda/lib/python3.10/site-packages (from jinja2->torch->TorchDiffEqPack) (2.1.5)
29.6s 27 Requirement already satisfied: mpmath>=0.19 in /opt/conda/lib/python3.10/site-packages (from sympy->torch->TorchDiffEqPack) (1.3.0)
29.8s 28 Downloading TorchDiffEqPack-1.0.1-py3-none-any.whl (33 kB)
39.3s 29 Installing collected packages: TorchDiffEqPack
39.5s 30 Successfully installed TorchDiffEqPack-1.0.1
40.4s 31 /kaggle/input/amp-c-train/Amp_C_train.txt
40.7s 32 CUDA is not available. Running on CPU.
43.0s 33 Model architecture: NeuralODEModel(
43.0s 34 (input_layer): Linear(in_features=2, out_features=32, bias=True)
43.0s 35 (hidden_layers): ModuleList(
43.0s 36 (0): Linear(in_features=32, out_features=64, bias=True)
43.0s 37 (1): Linear(in_features=64, out_features=128, bias=True)
43.0s 38 (2-4): 3 x Linear(in_features=128, out_features=128, bias=True)
43.0s 39 (5): Linear(in_features=128, out_features=64, bias=True)
43.0s 40 (6): Linear(in_features=64, out_features=32, bias=True)
43.0s 41 (7): Linear(in_features=32, out_features=16, bias=True)
43.0s 42 (8): Linear(in_features=16, out_features=8, bias=True)
43.0s 43 (9): Linear(in_features=8, out_features=4, bias=True)
43.0s 44 (10): Linear(in_features=4, out_features=2, bias=True)
43.0s 45 )
43.0s 46 (residual_connections): ModuleList(
43.0s 47 (0): Linear(in_features=32, out_features=64, bias=True)
43.0s 48 (1): Linear(in_features=64, out_features=128, bias=True)
43.0s 49 (2-4): 3 x Identity()
43.0s 50 (5): Linear(in_features=128, out_features=64, bias=True)
43.0s 51 (6): Linear(in_features=64, out_features=32, bias=True)
43.0s 52 (7): Linear(in_features=32, out_features=16, bias=True)
43.0s 53 (8): Linear(in_features=16, out_features=8, bias=True)
43.0s 54 (9): Linear(in_features=8, out_features=4, bias=True)
43.0s 55 (10): Linear(in_features=4, out_features=2, bias=True)
43.0s 56 )
43.0s 57 (ode_func): ODEFunc(
43.0s 58 (fc1): Linear(in_features=2, out_features=2, bias=True)
43.0s 59 (fc2): Linear(in_features=2, out_features=2, bias=True)
43.0s 60 (relu): ReLU()
43.0s 61 (norm): LayerNorm((2,), eps=1e-05, elementwise_affine=True)
43.0s 62 )
43.0s 63 (output_layer): Linear(in_features=2, out_features=2, bias=True)
43.0s 64 (dropout): Dropout(p=0.5, inplace=False)
43.0s 65 )
43.0s 66 --------------------------------------------------
43.0s 67 Parameter name: input_layer.weight
43.0s 68 Parameter shape: torch.Size([32, 2])
43.0s 69 Parameter count: 64
43.0s 70 ------------------------------
43.0s 71 Parameter name: input_layer.bias
43.0s 72 Parameter shape: torch.Size([32])
…
