…
31.8s 27 Requirement already satisfied: mpmath<1.4,>=1.1.0 in /opt/conda/lib/python3.10/site-packages (from sympy->torch->TorchDiffEqPack) (1.3.0)
31.8s 28 Downloading TorchDiffEqPack-1.0.1-py3-none-any.whl (33 kB)
42.2s 29 Installing collected packages: TorchDiffEqPack
42.5s 30 Successfully installed TorchDiffEqPack-1.0.1
42.9s 31 /kaggle/input/amp-c-train/Amp_C_train.txt
43.4s 32 CUDA is available!
43.4s 33 Device name: Tesla P100-PCIE-16GB
43.4s 34 CUDA capability: (6, 0)
43.4s 35 Driver version: 12.3
43.4s 36 Device count: 1
43.4s 37 Current device: 0
51.0s 38 Model architecture: NeuralODEModel(
51.0s 39 (input_layer): Linear(in_features=2, out_features=1024, bias=True)
51.0s 40 (hidden_layers): ModuleList(
51.0s 41 (0): Linear(in_features=1024, out_features=4096, bias=True)
51.0s 42 (1): Linear(in_features=4096, out_features=16384, bias=True)
51.0s 43 (2): Linear(in_features=16384, out_features=16384, bias=True)
51.0s 44 (3): Linear(in_features=16384, out_features=4096, bias=True)
51.0s 45 (4): Linear(in_features=4096, out_features=4096, bias=True)
51.0s 46 (5): Linear(in_features=4096, out_features=1024, bias=True)
51.0s 47 )
51.0s 48 (residual_connections): ModuleList(
51.0s 49 (0): Linear(in_features=1024, out_features=4096, bias=True)
51.0s 50 (1): Linear(in_features=4096, out_features=16384, bias=True)
51.0s 51 (2): Identity()
51.0s 52 (3): Linear(in_features=16384, out_features=4096, bias=True)
51.0s 53 (4): Identity()
51.0s 54 (5): Linear(in_features=4096, out_features=1024, bias=True)
51.0s 55 )
51.0s 56 (ode_func): ODEFunc(
51.0s 57 (fc1): Linear(in_features=1024, out_features=1024, bias=True)
51.0s 58 (fc2): Linear(in_features=1024, out_features=1024, bias=True)
51.0s 59 (relu): ReLU()
51.0s 60 (norm): LayerNorm((1024,), eps=1e-05, elementwise_affine=True)
51.0s 61 )
51.0s 62 (output_layer): Linear(in_features=1024, out_features=2, bias=True)
51.0s 63 (dropout): Dropout(p=0.5, inplace=False)
51.0s 64 )
51.0s 65 --------------------------------------------------
51.0s 66 Parameter name: input_layer.weight
51.0s 67 Parameter shape: torch.Size([1024, 2])
51.0s 68 Parameter count: 2048
51.0s 69 ------------------------------
51.0s 70 Parameter name: input_layer.bias
51.0s 71 Parameter shape: torch.Size([1024])
…
