…
32.3s 27 Requirement already satisfied: mpmath<1.4,>=1.1.0 in /opt/conda/lib/python3.10/site-packages (from sympy->torch->TorchDiffEqPack) (1.3.0)
32.3s 28 Downloading TorchDiffEqPack-1.0.1-py3-none-any.whl (33 kB)
42.7s 29 Installing collected packages: TorchDiffEqPack
42.9s 30 Successfully installed TorchDiffEqPack-1.0.1
43.5s 31 /kaggle/input/amp-c-train/Amp_C_train.txt
43.9s 32 CUDA is available!
43.9s 33 Device name: Tesla P100-PCIE-16GB
43.9s 34 CUDA capability: (6, 0)
43.9s 35 Driver version: 12.3
43.9s 36 Device count: 1
43.9s 37 Current device: 0
46.4s 38 Model architecture: NeuralODEModel(
46.4s 39 (input_layer): Linear(in_features=2, out_features=64, bias=True)
46.4s 40 (hidden_layers): ModuleList(
46.4s 41 (0): Linear(in_features=64, out_features=128, bias=True)
46.4s 42 (1-2): 2 x Linear(in_features=128, out_features=128, bias=True)
46.4s 43 (3): Linear(in_features=128, out_features=256, bias=True)
46.4s 44 (4): Linear(in_features=256, out_features=256, bias=True)
46.4s 45 (5): Linear(in_features=256, out_features=128, bias=True)
46.4s 46 (6): Linear(in_features=128, out_features=64, bias=True)
46.4s 47 (7): Linear(in_features=64, out_features=32, bias=True)
46.4s 48 (8): Linear(in_features=32, out_features=32, bias=True)
46.4s 49 (9): Linear(in_features=32, out_features=16, bias=True)
46.4s 50 (10): Linear(in_features=16, out_features=4, bias=True)
46.4s 51 (11): Linear(in_features=4, out_features=2, bias=True)
46.4s 52 )
46.4s 53 (residual_connections): ModuleList(
46.4s 54 (0): Linear(in_features=64, out_features=128, bias=True)
46.4s 55 (1-2): 2 x Identity()
46.4s 56 (3): Linear(in_features=128, out_features=256, bias=True)
46.4s 57 (4): Identity()
46.4s 58 (5): Linear(in_features=256, out_features=128, bias=True)
46.4s 59 (6): Linear(in_features=128, out_features=64, bias=True)
46.4s 60 (7): Linear(in_features=64, out_features=32, bias=True)
46.4s 61 (8): Identity()
46.4s 62 (9): Linear(in_features=32, out_features=16, bias=True)
46.4s 63 (10): Linear(in_features=16, out_features=4, bias=True)
46.4s 64 (11): Linear(in_features=4, out_features=2, bias=True)
46.4s 65 )
46.4s 66 (ode_func): ODEFunc(
46.4s 67 (fc1): Linear(in_features=2, out_features=2, bias=True)
46.4s 68 (fc2): Linear(in_features=2, out_features=2, bias=True)
46.4s 69 (relu): ReLU()
46.4s 70 (norm): LayerNorm((2,), eps=1e-05, elementwise_affine=True)
46.4s 71 )
46.4s 72 (output_layer): Linear(in_features=2, out_features=2, bias=True)
46.4s 73 (dropout): Dropout(p=0.5, inplace=False)
46.4s 74 )
46.4s 75 --------------------------------------------------
46.4s 76 Parameter name: input_layer.weight
46.4s 77 Parameter shape: torch.Size([64, 2])
46.4s 78 Parameter count: 128
46.4s 79 ------------------------------
46.4s 80 Parameter name: input_layer.bias
46.4s 81 Parameter shape: torch.Size([64])
…
