…
37.0s 26 Requirement already satisfied: MarkupSafe>=2.0 in /opt/conda/lib/python3.10/site-packages (from jinja2->torch->TorchDiffEqPack) (2.1.5)
37.0s 27 Requirement already satisfied: mpmath>=0.19 in /opt/conda/lib/python3.10/site-packages (from sympy->torch->TorchDiffEqPack) (1.3.0)
37.1s 28 Downloading TorchDiffEqPack-1.0.1-py3-none-any.whl (33 kB)
49.6s 29 Installing collected packages: TorchDiffEqPack
49.8s 30 Successfully installed TorchDiffEqPack-1.0.1
50.8s 31 /kaggle/input/amp-c-train/Amp_C_train.txt
51.2s 32 CUDA is not available. Running on CPU.
54.2s 33 Model architecture: NeuralODEModel(
54.2s 34 (input_layer): Linear(in_features=2, out_features=128, bias=True)
54.2s 35 (hidden_layers): ModuleList(
54.2s 36 (0): Linear(in_features=128, out_features=256, bias=True)
54.2s 37 (1): Linear(in_features=256, out_features=512, bias=True)
54.2s 38 (2): Linear(in_features=512, out_features=256, bias=True)
54.2s 39 (3-4): 2 x Linear(in_features=256, out_features=256, bias=True)
54.2s 40 (5): Linear(in_features=256, out_features=128, bias=True)
54.2s 41 (6): Linear(in_features=128, out_features=64, bias=True)
54.2s 42 (7): Linear(in_features=64, out_features=32, bias=True)
54.2s 43 (8): Linear(in_features=32, out_features=8, bias=True)
54.2s 44 (9): Linear(in_features=8, out_features=4, bias=True)
54.2s 45 )
54.2s 46 (residual_connections): ModuleList(
54.2s 47 (0): Linear(in_features=128, out_features=256, bias=True)
54.2s 48 (1): Linear(in_features=256, out_features=512, bias=True)
54.2s 49 (2): Linear(in_features=512, out_features=256, bias=True)
54.2s 50 (3-4): 2 x Identity()
54.2s 51 (5): Linear(in_features=256, out_features=128, bias=True)
54.2s 52 (6): Linear(in_features=128, out_features=64, bias=True)
54.2s 53 (7): Linear(in_features=64, out_features=32, bias=True)
54.2s 54 (8): Linear(in_features=32, out_features=8, bias=True)
54.2s 55 (9): Linear(in_features=8, out_features=4, bias=True)
54.2s 56 )
54.2s 57 (ode_func): ODEFunc(
54.2s 58 (fc1): Linear(in_features=4, out_features=4, bias=True)
54.2s 59 (fc2): Linear(in_features=4, out_features=4, bias=True)
54.2s 60 (relu): ReLU()
54.2s 61 (norm): LayerNorm((4,), eps=1e-05, elementwise_affine=True)
54.2s 62 )
54.2s 63 (output_layer): Linear(in_features=4, out_features=2, bias=True)
54.2s 64 (dropout): Dropout(p=0.5, inplace=False)
54.2s 65 )
54.2s 66 --------------------------------------------------
54.2s 67 Parameter name: input_layer.weight
54.2s 68 Parameter shape: torch.Size([128, 2])
54.2s 69 Parameter count: 256
54.2s 70 ------------------------------
54.2s 71 Parameter name: input_layer.bias
54.2s 72 Parameter shape: torch.Size([128])
…
