…
31.3s 27 Requirement already satisfied: mpmath<1.4,>=1.1.0 in /opt/conda/lib/python3.10/site-packages (from sympy->torch->TorchDiffEqPack) (1.3.0)
31.3s 28 Downloading TorchDiffEqPack-1.0.1-py3-none-any.whl (33 kB)
41.5s 29 Installing collected packages: TorchDiffEqPack
41.7s 30 Successfully installed TorchDiffEqPack-1.0.1
42.2s 31 /kaggle/input/amp-c-train/Amp_C_train.txt
42.8s 32 CUDA is available!
42.8s 33 Device name: Tesla P100-PCIE-16GB
42.8s 34 CUDA capability: (6, 0)
42.8s 35 Driver version: 12.3
42.8s 36 Device count: 1
42.8s 37 Current device: 0
45.2s 38 Model architecture: NeuralODEModel(
45.2s 39 (input_layer): Linear(in_features=2, out_features=256, bias=True)
45.2s 40 (hidden_layers): ModuleList(
45.2s 41 (0): Linear(in_features=256, out_features=1024, bias=True)
45.2s 42 (1): Linear(in_features=1024, out_features=2048, bias=True)
45.2s 43 (2): Linear(in_features=2048, out_features=2048, bias=True)
45.2s 44 (3): Linear(in_features=2048, out_features=256, bias=True)
45.2s 45 (4): Linear(in_features=256, out_features=64, bias=True)
45.2s 46 )
45.2s 47 (residual_connections): ModuleList(
45.2s 48 (0): Linear(in_features=256, out_features=1024, bias=True)
45.2s 49 (1): Linear(in_features=1024, out_features=2048, bias=True)
45.2s 50 (2): Identity()
45.2s 51 (3): Linear(in_features=2048, out_features=256, bias=True)
45.2s 52 (4): Linear(in_features=256, out_features=64, bias=True)
45.2s 53 )
45.2s 54 (ode_func): ODEFunc(
45.2s 55 (fc1): Linear(in_features=64, out_features=64, bias=True)
45.2s 56 (fc2): Linear(in_features=64, out_features=64, bias=True)
45.2s 57 (relu): ReLU()
45.2s 58 (norm): LayerNorm((64,), eps=1e-05, elementwise_affine=True)
45.2s 59 )
45.2s 60 (output_layer): Linear(in_features=64, out_features=2, bias=True)
45.2s 61 (dropout): Dropout(p=0.5, inplace=False)
45.2s 62 )
45.2s 63 --------------------------------------------------
45.2s 64 Parameter name: input_layer.weight
45.2s 65 Parameter shape: torch.Size([256, 2])
45.2s 66 Parameter count: 512
45.2s 67 ------------------------------
45.2s 68 Parameter name: input_layer.bias
45.2s 69 Parameter shape: torch.Size([256])
…
