…
34.6s 26 Requirement already satisfied: MarkupSafe>=2.0 in /opt/conda/lib/python3.10/site-packages (from jinja2->torch->TorchDiffEqPack) (2.1.5)
34.7s 27 Requirement already satisfied: mpmath>=0.19 in /opt/conda/lib/python3.10/site-packages (from sympy->torch->TorchDiffEqPack) (1.3.0)
34.7s 28 Downloading TorchDiffEqPack-1.0.1-py3-none-any.whl (33 kB)
47.1s 29 Installing collected packages: TorchDiffEqPack
47.4s 30 Successfully installed TorchDiffEqPack-1.0.1
48.3s 31 /kaggle/input/amp-c-train/Amp_C_train.txt
48.7s 32 CUDA is not available. Running on CPU.
51.5s 33 Model architecture: NeuralODEModel(
51.5s 34 (input_layer): Linear(in_features=2, out_features=128, bias=True)
51.5s 35 (hidden_layers): ModuleList(
51.5s 36 (0): Linear(in_features=128, out_features=256, bias=True)
51.5s 37 (1): Linear(in_features=256, out_features=512, bias=True)
51.5s 38 (2): Linear(in_features=512, out_features=256, bias=True)
51.5s 39 (3-4): 2 x Linear(in_features=256, out_features=256, bias=True)
51.5s 40 (5): Linear(in_features=256, out_features=128, bias=True)
51.5s 41 (6): Linear(in_features=128, out_features=64, bias=True)
51.5s 42 (7): Linear(in_features=64, out_features=32, bias=True)
51.5s 43 (8): Linear(in_features=32, out_features=32, bias=True)
51.5s 44 (9): Linear(in_features=32, out_features=16, bias=True)
51.5s 45 (10): Linear(in_features=16, out_features=4, bias=True)
51.5s 46 (11): Linear(in_features=4, out_features=2, bias=True)
51.5s 47 )
51.5s 48 (residual_connections): ModuleList(
51.5s 49 (0): Linear(in_features=128, out_features=256, bias=True)
51.5s 50 (1): Linear(in_features=256, out_features=512, bias=True)
51.5s 51 (2): Linear(in_features=512, out_features=256, bias=True)
51.5s 52 (3-4): 2 x Identity()
51.5s 53 (5): Linear(in_features=256, out_features=128, bias=True)
51.5s 54 (6): Linear(in_features=128, out_features=64, bias=True)
51.5s 55 (7): Linear(in_features=64, out_features=32, bias=True)
51.5s 56 (8): Identity()
51.5s 57 (9): Linear(in_features=32, out_features=16, bias=True)
51.5s 58 (10): Linear(in_features=16, out_features=4, bias=True)
51.5s 59 (11): Linear(in_features=4, out_features=2, bias=True)
51.5s 60 )
51.5s 61 (ode_func): ODEFunc(
51.5s 62 (fc1): Linear(in_features=2, out_features=2, bias=True)
51.5s 63 (fc2): Linear(in_features=2, out_features=2, bias=True)
51.5s 64 (relu): ReLU()
51.5s 65 (norm): LayerNorm((2,), eps=1e-05, elementwise_affine=True)
51.5s 66 )
51.5s 67 (output_layer): Linear(in_features=2, out_features=2, bias=True)
51.5s 68 (dropout): Dropout(p=0.5, inplace=False)
51.5s 69 )
51.5s 70 --------------------------------------------------
51.5s 71 Parameter name: input_layer.weight
51.5s 72 Parameter shape: torch.Size([128, 2])
51.5s 73 Parameter count: 256
51.5s 74 ------------------------------
51.5s 75 Parameter name: input_layer.bias
51.5s 76 Parameter shape: torch.Size([128])
…
