…
32.0s 27 Requirement already satisfied: mpmath<1.4,>=1.1.0 in /opt/conda/lib/python3.10/site-packages (from sympy->torch->TorchDiffEqPack) (1.3.0)
32.0s 28 Downloading TorchDiffEqPack-1.0.1-py3-none-any.whl (33 kB)
42.5s 29 Installing collected packages: TorchDiffEqPack
42.7s 30 Successfully installed TorchDiffEqPack-1.0.1
43.1s 31 /kaggle/input/amp-c-train/Amp_C_train.txt
43.7s 32 CUDA is available!
43.7s 33 Device name: Tesla P100-PCIE-16GB
43.7s 34 CUDA capability: (6, 0)
43.7s 35 Driver version: 12.3
43.7s 36 Device count: 1
43.7s 37 Current device: 0
46.1s 38 Model architecture: NeuralODEModel(
46.1s 39 (input_layer): Linear(in_features=2, out_features=256, bias=True)
46.1s 40 (hidden_layers): ModuleList(
46.1s 41 (0): Linear(in_features=256, out_features=1024, bias=True)
46.1s 42 (1): Linear(in_features=1024, out_features=2048, bias=True)
46.1s 43 (2): Linear(in_features=2048, out_features=2048, bias=True)
46.1s 44 (3): Linear(in_features=2048, out_features=256, bias=True)
46.1s 45 (4): Linear(in_features=256, out_features=64, bias=True)
46.1s 46 )
46.1s 47 (residual_connections): ModuleList(
46.1s 48 (0): Linear(in_features=256, out_features=1024, bias=True)
46.1s 49 (1): Linear(in_features=1024, out_features=2048, bias=True)
46.1s 50 (2): Identity()
46.1s 51 (3): Linear(in_features=2048, out_features=256, bias=True)
46.1s 52 (4): Linear(in_features=256, out_features=64, bias=True)
46.1s 53 )
46.1s 54 (ode_func): ODEFunc(
46.1s 55 (fc1): Linear(in_features=64, out_features=64, bias=True)
46.1s 56 (fc2): Linear(in_features=64, out_features=64, bias=True)
46.1s 57 (relu): ReLU()
46.1s 58 (norm): LayerNorm((64,), eps=1e-05, elementwise_affine=True)
46.1s 59 )
46.1s 60 (output_layer): Linear(in_features=64, out_features=2, bias=True)
46.1s 61 (dropout): Dropout(p=0.5, inplace=False)
46.1s 62 )
46.1s 63 --------------------------------------------------
46.1s 64 Parameter name: input_layer.weight
46.1s 65 Parameter shape: torch.Size([256, 2])
46.1s 66 Parameter count: 512
46.1s 67 ------------------------------
46.1s 68 Parameter name: input_layer.bias
46.1s 69 Parameter shape: torch.Size([256])
…
