…
31.5s 27 Requirement already satisfied: mpmath<1.4,>=1.1.0 in /opt/conda/lib/python3.10/site-packages (from sympy->torch->TorchDiffEqPack) (1.3.0)
31.5s 28 Downloading TorchDiffEqPack-1.0.1-py3-none-any.whl (33 kB)
41.9s 29 Installing collected packages: TorchDiffEqPack
42.1s 30 Successfully installed TorchDiffEqPack-1.0.1
42.5s 31 /kaggle/input/amp-c-train/Amp_C_train.txt
43.1s 32 CUDA is available!
43.1s 33 Device name: Tesla P100-PCIE-16GB
43.1s 34 CUDA capability: (6, 0)
43.1s 35 Driver version: 12.3
43.1s 36 Device count: 1
43.1s 37 Current device: 0
47.0s 38 Model architecture: NeuralODEModel(
47.0s 39 (input_layer): Linear(in_features=2, out_features=1024, bias=True)
47.0s 40 (hidden_layers): ModuleList(
47.0s 41 (0): Linear(in_features=1024, out_features=4096, bias=True)
47.0s 42 (1): Linear(in_features=4096, out_features=4096, bias=True)
47.0s 43 (2): Linear(in_features=4096, out_features=8192, bias=True)
47.0s 44 (3): Linear(in_features=8192, out_features=4096, bias=True)
47.0s 45 (4): Linear(in_features=4096, out_features=1024, bias=True)
47.0s 46 )
47.0s 47 (residual_connections): ModuleList(
47.0s 48 (0): Linear(in_features=1024, out_features=4096, bias=True)
47.0s 49 (1): Identity()
47.0s 50 (2): Linear(in_features=4096, out_features=8192, bias=True)
47.0s 51 (3): Linear(in_features=8192, out_features=4096, bias=True)
47.0s 52 (4): Linear(in_features=4096, out_features=1024, bias=True)
47.0s 53 )
47.0s 54 (ode_func): ODEFunc(
47.0s 55 (fc1): Linear(in_features=1024, out_features=1024, bias=True)
47.0s 56 (fc2): Linear(in_features=1024, out_features=1024, bias=True)
47.0s 57 (relu): ReLU()
47.0s 58 (norm): LayerNorm((1024,), eps=1e-05, elementwise_affine=True)
47.0s 59 )
47.0s 60 (output_layer): Linear(in_features=1024, out_features=2, bias=True)
47.0s 61 (dropout): Dropout(p=0.5, inplace=False)
47.0s 62 )
47.0s 63 --------------------------------------------------
47.0s 64 Parameter name: input_layer.weight
47.0s 65 Parameter shape: torch.Size([1024, 2])
47.0s 66 Parameter count: 2048
47.0s 67 ------------------------------
47.0s 68 Parameter name: input_layer.bias
47.0s 69 Parameter shape: torch.Size([1024])
…
